…
Files already downloaded and verified
D:\software\anaconda\envs\pytorch\lib\site-packages\e2cnn\nn\modules\r2_conv\basisexpansion_singleblock.py:61: UserWarning: indexing with dtype torch.uint8 is now deprecated, 
please use a dtype torch.bool instead. (Triggered internally at  ..\aten\src\ATen/native/IndexingUtils.h:25.)
  sampled_basis = sampled_basis[mask, ...]
----------------------------------------------------------------
        Layer (type)               Output Shape         Param #
================================================================
SingleBlockBasisExpansion-1            [-1, 32, 1, 25]               0
BlocksBasisExpansion-2                [-1, 1, 25]               0
            R2Conv-3        [-1, 192, 149, 149]               0
              ReLU-4        [-1, 192, 149, 149]               0
PointwiseMaxPoolAntialiased-5          [-1, 192, 74, 74]               0
SingleBlockBasisExpansion-6           [-1, 32, 32, 25]               0
BlocksBasisExpansion-7              [-1, 192, 25]               0
            R2Conv-8          [-1, 512, 72, 72]               0
              ReLU-9          [-1, 512, 72, 72]               0
PointwiseMaxPoolAntialiased-10          [-1, 512, 36, 36]               0
     GroupPooling-11           [-1, 16, 36, 36]               0
           Linear-12                  [-1, 120]       2,488,440
           Linear-13                   [-1, 84]          10,164
          Dropout-14                   [-1, 84]               0
           Linear-15                    [-1, 2]             170
================================================================
Total params: 2,498,774
Trainable params: 2,498,774
Non-trainable params: 0
----------------------------------------------------------------
Input size (MB): 0.09
Forward/backward pass size (MB): 119.02
Params size (MB): 9.53
Estimated Total Size (MB): 128.64
----------------------------------------------------------------
Epoch: 0, Validation Loss: 0.609888, Validation Accuracy: 0.648276
…
