…
Files already downloaded and verified
Files already downloaded and verified
D:\software\anaconda\envs\pytorch\lib\site-packages\e2cnn\nn\modules\r2_conv\basisexpansion_singleblock.py:61: UserWarning: indexing with dtype torch.uint8 is now deprecated, please use a dtype torch.bool instead. (Triggered internally at  ..\aten\src\ATen/native/IndexingUtils.h:25.)
  sampled_basis = sampled_basis[mask, ...]
----------------------------------------------------------------
        Layer (type)               Output Shape         Param #
================================================================
SingleBlockBasisExpansion-1            [-1, 32, 1, 25]               0
BlocksBasisExpansion-2                [-1, 1, 25]               0
            R2Conv-3        [-1, 192, 148, 148]               0
              ReLU-4        [-1, 192, 148, 148]               0
PointwiseMaxPoolAntialiased-5          [-1, 192, 74, 74]               0
SingleBlockBasisExpansion-6           [-1, 32, 32, 25]               0
SingleBlockBasisExpansion-7           [-1, 32, 32, 25]               0
SingleBlockBasisExpansion-8           [-1, 32, 32, 25]               0
BlocksBasisExpansion-9              [-1, 192, 25]               0
           R2Conv-10          [-1, 512, 72, 72]               0
             ReLU-11          [-1, 512, 72, 72]               0
PointwiseMaxPoolAntialiased-12          [-1, 512, 36, 36]               0
     GroupPooling-13           [-1, 16, 36, 36]               0
           Linear-14                  [-1, 120]       2,488,440
           Linear-15                   [-1, 84]          10,164
          Dropout-16                   [-1, 84]               0
           Linear-17                    [-1, 2]             170
SingleBlockBasisExpansion-18           [-1, 32, 32, 25]               0
SingleBlockBasisExpansion-19           [-1, 32, 32, 25]               0
SingleBlockBasisExpansion-20           [-1, 32, 32, 25]               0
BlocksBasisExpansion-21              [-1, 512, 25]               0
           R2Conv-22         [-1, 1024, 34, 34]               0
             ReLU-23         [-1, 1024, 34, 34]               0
PointwiseMaxPoolAntialiased-24         [-1, 1024, 17, 17]               0
SingleBlockBasisExpansion-25           [-1, 32, 32, 25]               0
SingleBlockBasisExpansion-26           [-1, 32, 32, 25]               0
SingleBlockBasisExpansion-27           [-1, 32, 32, 25]               0
BlocksBasisExpansion-28             [-1, 1024, 25]               0
           R2Conv-29         [-1, 2048, 15, 15]               0
             ReLU-30         [-1, 2048, 15, 15]               0
PointwiseMaxPoolAntialiased-31           [-1, 2048, 7, 7]               0
     GroupPooling-32             [-1, 64, 7, 7]               0
           Linear-33                  [-1, 120]         376,440
           Linear-34                   [-1, 84]          10,164
          Dropout-35                   [-1, 84]               0
           Linear-36                    [-1, 5]             425
DNSteerableMiraSub-37         [[-1, 2], [-1, 5]]               0
================================================================
Total params: 2,885,803
Trainable params: 2,885,803
Non-trainable params: 0
----------------------------------------------------------------
Input size (MB): 0.09
Forward/backward pass size (MB): 148.15
Params size (MB): 11.01
Estimated Total Size (MB): 159.25
----------------------------------------------------------------
…
